model.pth (torch, 45812 bytes, 6 tensors)

fc1.weight f4 [128, 13]
0	0xbc0b609d	-0.008506921
1	0x3db799db	0.089648925
2	0xbdc0157e	-0.09379099
3	0x3e3827d2	0.1798394
4	0x3db2a338	0.08722538
5	0x3e0e5e09	0.13903059
6	0xbdb8c77f	-0.09022426
7	0xbdb54bbd	-0.088523366
8	0xbdf8f8ed	-0.12156854
9	0xbdd4127b	-0.10355087
10	0x3b01fa45	0.001983301
11	0xbdfe2e5b	-0.12411185
12	0xbe9d648d	-0.30740777
13	0xbd6f530f	-0.05842882
14	0x3de6bf2d	0.11266933
15	0x3dbbd001	0.09170533
16	0x3dc755a8	0.097331345
17	0xbe19b8f8	-0.15011966
18	0xbe4d7690	-0.20064759
19	0x3e4fdc53	0.20298891
20	0xbe17b295	-0.14814217
21	0xbdc34c89	-0.09536082
22	0x3ca2e0ef	0.019882647
23	0xbf00e86a	-0.50354636
24	0xbd614a62	-0.055002578
25	0xbdce4751	-0.10072196
26	0xbcbbf375	-0.022943238
27	0x3dc26425	0.09491757
28	0xbd02a349	-0.031894002
29	0x3d81b3be	0.06333111
30	0x3e31a787	0.17349063
31	0xbe1cce3a	-0.15313044
32	0xbdd76a43	-0.10518315
33	0x3ea0a309	0.31374386
34	0x3ddd2624	0.1079829
35	0xbeac4621	-0.33647254
36	0xbd38ac05	-0.045085926
37	0x3ce9e826	0.02855308
38	0x3dc5a7a1	0.09651113
39	0xbd95e1f3	-0.07318487
40	0x3e42aad8	0.19010484
41	0x3cce1e09	0.025160806
42	0x3ece2a65	0.4026672
43	0xbf1d7880	-0.61511993
44	0xbe3d13c5	-0.18464573
45	0xbecf16f3	-0.40447196
46	0xbdf02b7c	-0.11727044
47	0x3defa578	0.117014825
48	0x3e4dece4	0.20109898
49	0x3f104276	0.5635141
50	0x3eb3b608	0.35099816
51	0xbe567f92	-0.20947102
52	0xbe4f052d	-0.20216818
53	0x3d1dbd58	0.03851065
54	0x3daf9f55	0.08575312
55	0xbd18eb6f	-0.037333902
56	0xbe1b36d5	-0.15157636
57	0x3d0b3b6a	0.03399221
58	0xbe815017	-0.25256416
59	0xbee51d18	-0.4474876
60	0xbe076997	-0.13223873
61	0x3e7c6827	0.24649106
62	0xbe5c8358	-0.21534479
63	0xbd0bce9c	-0.034132585
64	0x3d5ef46d	0.05443232
65	0x3e9465f6	0.2898404
66	0x3e063b68	0.13108599
67	0xbe995f8c	-0.2995571
68	0x3e2e9b8d	0.17051525
69	0x3be861c0	0.007091731
70	0x3bcdcaf0	0.0062802956
71	0x3e3fbc02	0.18724063
72	0xbe1e6a3a	-0.1547021
73	0x3d4d4f4c	0.05012445
74	0xbde7227f	-0.112858765
75	0xbd445273	-0.047930192
76	0x3e8f669c	0.28007972
77	0x3e8b89bc	0.2725352
78	0xbddc7895	-0.10765187
79	0x3db19418	0.08670825
80	0xbaa6cb65	-0.0012725411
81	0x3e5babc3	0.2145224
82	0x3e41936c	0.18903893
83	0x3e98db16	0.2985465
84	0xbe19a066	-0.15002593
85	0xbea60c67	-0.32431337
86	0xbeecf21c	-0.46278465
87	0xbd160843	-0.036628973
88	0xbeffd6b5	-0.49968496
89	0xbf26574e	-0.64976966
90	0xbebcb421	-0.36856177
91	0x3d4e3373	0.050342035
92	0xbe1fef7a	-0.15618697
93	0x3d79aee9	0.060957823
94	0x3d34b03b	0.04411338
95	0xbe88ae4b	-0.26695475
96	0xbdfbdab4	-0.12297574
97	0x3ef76d6f	0.4832568
98	0xbdc9b4a4	-0.098489076
99	0xbf036217	-0.5132155
100	0xbec479c8	-0.38374162
101	0xbdf8816c	-0.1213406
102	0xbb35d326	-0.0027744262
103	0x3ed38ff4	0.41320765
104	0x3d4fcc80	0.050732136
105	0xbde0be03	-0.10973742
106	0x3dbf11f7	0.093295984
107	0xbc1faedf	-0.009746282
108	0xbdd74cfd	-0.10512731
109	0x3e63be07	0.22240458
110	0x3e239c8a	0.15977684
111	0xbe23a398	-0.15980375
112	0x3efb333d	0.4906253
113	0x3c138f56	0.009006342
114	0xbec92b3e	-0.39290804
115	0xbe0869c9	-0.13321604
116	0xbe3fa085	-0.18713577
117	0x3c79e5f8	0.015252583
118	0xbdcfb977	-0.101427965
119	0x3d77ab5a	0.060466148
120	0xbd3b487d	-0.045723427
121	0x3d24d04c	0.04023771
122	0x3d092002	0.03347779
123	0x3d61a574	0.05508943
124	0x3c288021	0.010284455
125	0x3ce3534f	0.027749686
126	0xbdebcbb0	-0.1151346
127	0x3e0a1905	0.13486107
128	0x3dd68e03	0.10476305
129	0xbe90d80f	-0.2828984
130	0xbca9decc	-0.02073612
131	0x3c7cfbb2	0.015440868
132	0xbd440a78	-0.047861546
133	0x3d1e8811	0.03870398
134	0x3d5abe1c	0.05340396
135	0x3c81b775	0.01583455
136	0x3e16337a	0.14668074
137	0xbc0db490	-0.0086490065
138	0xbe119697	-0.14217602
139	0xbe4150f3	-0.18878536
140	0x3ce4cd42	0.027929906
141	0x3e99ed1c	0.30063713
142	0xbe8672bf	-0.2625942
143	0xbdd5dadd	-0.104421355
144	0xbd22ba0f	-0.03972822
145	0xbdf1bbf3	-0.118034266
146	0x3e0f735b	0.14008848
147	0x3dfa71f1	0.12228764
148	0x3dc995b3	0.09843006
149	0x3e12a911	0.14322306
150	0x3dbb51b8	0.09146446
151	0xbeb51152	-0.35364777
152	0xbd8ebc66	-0.06969528
153	0xbcedb4b1	-0.029016824
154	0x3e8fe7a9	0.2810643
155	0x3e4c88e6	0.19974098
156	0xbe28ca01	-0.16483308
157	0xbd999e03	-0.075008415
158	0xbeac1a2c	-0.33613718
159	0x3e4a4eef	0.19756673
160	0xbca62788	-0.020282522
161	0xbdc411f1	-0.095737346
162	0x3ea5d736	0.32390755
163	0xbc95efaf	-0.018302767
164	0x3e208807	0.1567689
165	0x3e628f12	0.2212489
166	0xbeefd96c	-0.46845567
167	0x3eb38d7f	0.3506889
168	0x3e2a8ed4	0.16656047
169	0x3d58e330	0.052951038
170	0xbdf7c40c	-0.1209794
171	0x3c898405	0.016786585
172	0xbb2ded51	-0.0026539157
173	0x3d631a43	0.055444967
174	0x3dbe6d2b	0.09298166
175	0x3dac5a74	0.0841569
176	0xbe1da23a	-0.15393916
177	0xbea70b38	-0.32625747
178	0xbea5a69c	-0.32353675
179	0x3e9533a7	0.2914097
180	0x3de3cd9d	0.11123202
181	0xbda3b8e1	-0.07994247
182	0xbd46a848	-0.04850033
183	0x3e268e18	0.16265142
184	0xbcce9562	-0.025217716
185	0x3c342572	0.010995256
186	0x3df65fe4	0.120300084
187	0xbeba1f00	-0.36351776
188	0x3d9b6cc2	0.07589103
189	0x3e09cd15	0.13457139
190	0xbe917091	-0.28406194
191	0x3f05e9f9	0.5231014
192	0x3dfff152	0.124972
193	0xbeb51d59	-0.35373953
194	0xbe6ac973	-0.2292841
195	0xbe509932	-0.2037094
196	0xbdb9939e	-0.09061359
197	0x3e5b1870	0.21396041
198	0xbdfcd56b	-0.12345394
199	0xbb8d8598	-0.004318904
200	0x39b920b3	0.00035310313
201	0xbdf93d60	-0.121699095
202	0x3dfce75a	0.12348814
203	0xbd5b795f	-0.053582545
204	0x3da2ff4f	0.079588525
205	0x3d0dc92e	0.034615688
206	0xbe500984	-0.2031613
207	0xbe4175bf	-0.18892573
208	0x3dbbe896	0.091752216
209	0xbdce9ba4	-0.1008828
210	0x3e8834dd	0.2660283
211	0xbe7e66cc	-0.24843901
212	0xbdedadd3	-0.1160542
213	0xbd7f6fa8	-0.062362343
214	0xbe5eb879	-0.21750058
215	0x3dd9474f	0.10609304
216	0xbe9defd9	-0.30847052
217	0x3e31fd9e	0.17381904
218	0xbe2e9504	-0.17049032
219	0x3ea5e2ab	0.32399496
220	0x3ecea007	0.40356466
221	0x3e346706	0.17617425
222	0x3e010b4b	0.12601964
223	0x3e5dfb08	0.21677792
224	0xbe52a1ae	-0.20569488
225	0xbb26cda4	-0.0025452161
226	0x3d17d76c	0.037070677
227	0x3e1c3c61	0.15257408
228	0xbdbf7d6a	-0.09350093
229	0x3e90e7e2	0.28301913
230	0x3e05fe9c	0.13085407
231	0x3ea0930e	0.31362194
232	0xbe3b91c4	-0.18317324
233	0x3e080351	0.13282515
234	0x3dd0a9fa	0.101886705
235	0xbe38ead9	-0.18058337
236	0x3db42c70	0.08797538
237	0x3d910dd7	0.07082718
238	0x3ec5835c	0.38576782
239	0x3e8d555f	0.27604195
240	0x3d35e484	0.044407383
241	0xbf13d297	-0.5774321
242	0xbe2ea52d	-0.17055197
243	0xbe108e70	-0.14116836
244	0x3db128d6	0.08650367
245	0xbeac8772	-0.33697087
246	0x3eabeb11	0.3357778
247	0xbe2b65b7	-0.1673802
248	0xbdf7749d	-0.12082789
249	0xbe3ea9a5	-0.18619402
250	0x3e4504d5	0.19240125
251	0x3d2d6179	0.042329285
252	0xbca23e3d	-0.019805068
253	0xbe07eabb	-0.13273136
254	0x3d9049a2	0.07045294
255	0xbe7e1ea9	-0.24816383

fc1.bias f4 [128]
0	0x3e3aad7d	0.18230243
1	0x3d87dd58	0.06634015
2	0x3e8f1bca	0.2795089
3	0x3d0b05f3	0.03394122
4	0xbe828db8	-0.25498748
5	0x3de35d10	0.11101735
6	0x3df69339	0.12039799
7	0xbea9af94	-0.33141768
8	0x3c63052d	0.0138562145
9	0xbd5ac07d	-0.053406227
10	0xbe1eb092	-0.15497044
11	0xbdb7f871	-0.08982933
12	0x3e9a7678	0.3016851
13	0xbe711a82	-0.23545268
14	0x3da91c90	0.08257401
15	0xbe035105	-0.12823875
16	0xbe729170	-0.23688293
17	0xbcc34e27	-0.023840977
18	0xbdba93f1	-0.09110249
19	0x3c22204a	0.009895394
20	0xbd026d97	-0.031842794
21	0xbe2115b5	-0.15730937
22	0x3eb525a6	0.35380286
23	0x3e42f430	0.19038463
24	0x3c84d554	0.016215004
25	0xbbc3ad67	-0.005971599
26	0x3db4ffb0	0.08837831
27	0x3cfad2d2	0.030618105
28	0xbe69b982	-0.22824672
29	0xbdaed168	-0.08536035
30	0x3d68dca7	0.056851055
31	0x3d59fda1	0.053220395
32	0x3d45e618	0.048315138
33	0xbbe3bbad	-0.006949863
34	0xbe022211	-0.12708308
35	0xbd343c96	-0.04400309
36	0x3e528d00	0.205616
37	0x3ea995a1	0.3312197
38	0x3e932427	0.2873852
39	0x3ed673a1	0.41885093
40	0xbe0fb589	-0.14034094
41	0x3e008a55	0.1255277
42	0x3edf28db	0.43585858
43	0x3e0bc5ea	0.13649717
44	0xbec3c11b	-0.38233265
45	0xbdd18d67	-0.102320485
46	0xbed30394	-0.41213667
47	0x3dda5c5e	0.10662149
48	0xbe75f45e	-0.24019
49	0x3e4baf1c	0.19891018
50	0xbe7818b5	-0.24228175
51	0x3d8126ba	0.06306215
52	0x3d4cb9c6	0.049981855
53	0xbea9b1e8	-0.33143544
54	0x3d96c143	0.073610805
55	0x3e0120ab	0.12610118
56	0x3ec190d4	0.37805808
57	0xbe3d17ad	-0.18466063
58	0x3e31d8de	0.17367885
59	0x3e47846e	0.19484112
60	0x3e1e5845	0.1546336
61	0xbe30827d	-0.17237277
62	0xbe82426b	-0.25441298
63	0x3da62e90	0.0811435
64	0xbd37d01d	-0.044876207
65	0x3e8750d8	0.26428866
66	0x3eba9911	0.36444905
67	0xbeedfe98	-0.46483302
68	0xbe5bf65c	-0.21480697
69	0xbec88bf4	-0.39169276
70	0x3e107a3e	0.14109132
71	0xbec90e1d	-0.3926858
72	0x3d622ead	0.055220295
73	0x3e813378	0.2523458
74	0x3d2eeea4	0.042708054
75	0x3ece573b	0.40300927
76	0x3edbf685	0.42961517
77	0x3ea5fff9	0.32421854
78	0xb9cd79e4	-0.00039191463
79	0x3eba4f87	0.363888
80	0x3db86301	0.090032585
81	0x3e2a07d0	0.16604543
82	0x3e3b88b0	0.18313861
83	0xbe764669	-0.24050297
84	0xbe45e0fb	-0.19324104
85	0x3ed7e86e	0.42169517
86	0x3e431cc7	0.19053946
87	0x3e84abfe	0.2591247
88	0x3e7eeed9	0.248958
89	0x3e7d92d4	0.24763042
90	0x3e66320e	0.22480032
91	0xbdca963d	-0.09891937
92	0xbe6ad5ae	-0.22933075
93	0x3e25eb20	0.16202974
94	0x3eb61f14	0.35570586
95	0x3eb38c09	0.35067776
96	0xbe90eca6	-0.28305548
97	0x3e943878	0.28949332
98	0x3e230cc9	0.15922846
99	0x3d412233	0.047151756
100	0x3cf6a827	0.030109478
101	0x3e5ec9e6	0.21756706
102	0x3eac7dce	0.3368973
103	0xbe1225ec	-0.14272279
104	0x3e730ae6	0.23734626
105	0xbdffae78	-0.12484449
106	0x3d85615f	0.06512713
107	0xbe87b11d	-0.26502314
108	0xbd7dd954	-0.06197484
109	0x3f08a718	0.53379965
110	0x3e9869f2	0.2976833
111	0x3c5df773	0.013547766
112	0x3cc00d1a	0.023443747
113	0x3e469093	0.19391088
114	0x3ee1a793	0.4407316
115	0xbd767b11	-0.06017596
116	0x3e7e16a3	0.24813323
117	0xbe1d3a74	-0.1535433
118	0xbe72091e	-0.2363629
119	0x3e221d08	0.15831387
120	0x3d7d264c	0.0618041
121	0x3e2e5d6e	0.17027828
122	0xbf4edc23	-0.8080465
123	0x3de983b4	0.114020735
124	0xbdaca61e	-0.08430122
125	0x3cab6b3e	0.02092516
126	0xbe1e5795	-0.15463097
127	0xbd4570b1	-0.048203174

fc2.weight f4 [64, 128]
0	0x3decc262	0.11560513
1	0x3dd5de72	0.10442819
2	0x3c3bbc51	0.011458472
3	0x3e818f1a	0.2530449
4	0x3e165eb3	0.14684562
5	0xbcb8094f	-0.022465376
6	0x3d1d976c	0.038474485
7	0xbd86b40a	-0.065773085
8	0xbd1c7ad5	-0.03820308
9	0x3d868481	0.06568242
10	0xbb8d6e76	-0.0043161465
11	0xbcc456d6	-0.023967188
12	0x3ddb9bb1	0.10723055
13	0x3bf787d6	0.0075540347
14	0x3c979b83	0.018506771
15	0x3cbe3222	0.023217265
16	0xbe0b9bf2	-0.13633707
17	0x3cfa84c2	0.030580882
18	0x3dcd66ef	0.10029399
19	0x3d93ac51	0.07210601
20	0x3e459546	0.19295225
21	0x3cf45736	0.029826742
22	0x3d4a92a5	0.049456257
23	0x3dddd4e1	0.10831619
24	0x3d40f7e4	0.047111407
25	0xbdb0427d	-0.08606432
26	0x3e1c3b5d	0.1525702
27	0x3c09999f	0.0083984425
28	0x3e2740d7	0.16333328
29	0xbdaf6d3d	-0.085657574
30	0x3d4ca9a3	0.049966466
31	0xbd667298	-0.05626163
32	0xbde50129	-0.11181862
33	0xbce47325	-0.027886936
34	0xbe0bd25e	-0.13654467
35	0x3d9e3ef9	0.07726855
36	0xbe32b77e	-0.17452809
37	0xbde5466f	-0.11195075
38	0x3cd52426	0.026018213
39	0xbe103710	-0.14083505
40	0x3e3d1bb1	0.18467595
41	0x3e94cc57	0.2906215
42	0xbdcc13cd	-0.09964714
43	0x3d23cee4	0.03999223
44	0x3d4fc93b	0.050729018
45	0xbe05064e	-0.12990686
46	0xbde584ac	-0.11206946
47	0xbdaf8ce3	-0.08571794
48	0xbb37f62d	-0.0028070316
49	0x3daab2a3	0.083348535
50	0x3d9114fc	0.070840806
51	0x3e13a556	0.1441854
52	0x3dac7102	0.08419992
53	0xbe01483d	-0.12625213
54	0x3bcff938	0.006346848
55	0x3d812a76	0.06306927
56	0xbd4b1a79	-0.049585793
57	0x3db96261	0.090519674
58	0x3e081fe8	0.13293421
59	0xbdf7d6c2	-0.12101509
60	0xbdf3db4d	-0.11907063
61	0x3d96482e	0.07337986
62	0x3cf61b51	0.030042322
63	0xbdc09fb3	-0.0940546
64	0xbd9a7ec6	-0.07543711
65	0x3c988885	0.018619785
66	0xbd9381e0	-0.07202506
67	0xbde8301d	-0.11337302
68	0x3d4f1ff3	0.05056758
69	0x3d175022	0.036941655
70	0x3dcde1f4	0.10052863
71	0xbd0bba9e	-0.03411352
72	0x3d763e58	0.06011805
73	0x3e326979	0.17423047
74	0x3b8011ab	0.003908356
75	0xbc5b5520	-0.013386995
76	0xbcfb67b1	-0.030689092
77	0x3c880832	0.01660547
78	0x3d49045e	0.04907643
79	0x3d831617	0.06400698
80	0x3c007fba	0.007842952
81	0xbda0072a	-0.078138664
82	0x3dfdee64	0.12398985
83	0x3db1d7d2	0.086837426
84	0x3c338dd3	0.0109591065
85	0x3d2e6569	0.04257718
86	0x3dd20e51	0.10256637
87	0x3da2ca0c	0.07948694
88	0xbb815145	-0.0039464557
89	0xbdf983b8	-0.121833265
90	0x3d9be817	0.07612627
91	0x3df6d68a	0.12052639
92	0xbd609202	-0.054826744
93	0xbe21a73f	-0.15786456
94	0xbe1049ff	-0.14090727
95	0x3d813f7d	0.063109376
96	0x3deeff9b	0.116698466
97	0xbe012a8a	-0.12613884
98	0xbce790a3	-0.02826721
99	0x3e10c809	0.14138807
100	0x3e3b2913	0.18277387
101	0x3d450254	0.048097923
102	0xbda6ac1f	-0.08138298
103	0x3d9c4b7a	0.076315835
104	0x3e4c78fd	0.19968028
105	0x3a8d3754	0.0010773935
106	0x3e2cb4ff	0.1686592
107	0xbdb8e4cd	-0.09028015
108	0x3e05dde6	0.13072929
109	0xbb0d5352	-0.0021564555
110	0xbde81b4b	-0.11333331
111	0xbc8603b7	-0.016359193
112	0xbd255206	-0.040361427
113	0x3db3a1ba	0.08771081
114	0xbc43ad92	-0.011943238
115	0x3d0820e7	0.033234503
116	0x3d4babc8	0.04972437
117	0x3d88c171	0.06677521
118	0x3dda8b65	0.10671119
119	0x3d7c90cc	0.061661527
120	0x3de28143	0.11059811
121	0x3da39fbf	0.079894535
122	0x3b03e3a2	0.0020124693
123	0xbd512107	-0.051056888
124	0xbc2a1b40	-0.0103824735
125	0x3dcbe514	0.099558026
126	0x3e3194e0	0.17341948
127	0xbd7aa33f	-0.06119084
128	0xbddbfde8	-0.10741788
129	0xbdce4023	-0.10070827
130	0x3e4a28ed	0.19742174
131	0x3d6cac3b	0.05778144
132	0xbdbc3275	-0.091893114
133	0x3d72890b	0.059212726
134	0xbe071efc	-0.13195413
135	0xbdbee592	-0.09321131
136	0xbdf04b96	-0.11733167
137	0xbb85d778	-0.004084524
138	0xbdb3206c	-0.08746418
139	0x3d931d2e	0.071833
140	0x3da8758b	0.082255445
141	0xbe127c8d	-0.14305325
142	0x3e0f2e1f	0.13982438
143	0xbd6acd44	-0.057324663
144	0xbc480704	-0.012208704
145	0x3b81c289	0.003959958
146	0x3d257f0e	0.040404372
147	0xbc09f0c2	-0.008419218
148	0xbe135d1c	-0.14390987
149	0x3d85a1fe	0.06525038
150	0x3c0298a3	0.007970962
151	0xbddee5d6	-0.108836815
152	0x3df532f6	0.11972611
153	0xbe0bfdb4	-0.13670999
154	0xbd63f189	-0.055650268
155	0x3d1f1d58	0.038846344
156	0xbdc64e97	-0.096829586
157	0x3e8eef8f	0.27917144
158	0xbcb9090d	-0.022587324
159	0xbe2765c6	-0.16347417
160	0x3d2e6cbc	0.042584166
161	0x3d32fb48	0.04369667
162	0x3d9aa377	0.0755071
163	0x3c95869d	0.018252665
164	0x3e353341	0.17695333
165	0x3c28bf20	0.010299474
166	0x3d3e72a0	0.046496034
167	0xbe5dda21	-0.21665241
168	0xbd89c61f	-0.06727242
169	0xbe565f35	-0.20934756
170	0x3e85e4f3	0.26151237
171	0x3c213713	0.009839791
172	0x3ca22cbf	0.019796727
173	0x3dc14c03	0.09438326
174	0xbdade384	-0.08490661
175	0xbd936342	-0.07196666
176	0x3d3c194f	0.045922574
177	0x3c877176	0.016533595
178	0x3d42b923	0.04753984
179	0xbd742656	-0.059606872
180	0x3d1e8ffc	0.038711533
181	0xbd390012	-0.045166083
182	0x3dc183a2	0.09448935
183	0x3c9822ef	0.018571345
184	0xbd085eef	-0.03329366
185	0xbd867f2e	-0.06567226
186	0xbe25a47d	-0.16176029
187	0x3c668655	0.014070113
188	0xbc85083d	-0.01623928
189	0xbda0e95b	-0.07857009
190	0x3c02861e	0.007966546
191	0x3d845588	0.06461626
192	0xbbb8a91e	-0.0056353947
193	0x3d307986	0.043084644
194	0x3d5ad935	0.0534298
195	0x3d15f427	0.036609795
196	0x3e37e2b2	0.17957571
197	0x3d8614de	0.06546949
198	0xbd485b90	-0.048915446
199	0xbd0009f7	-0.031259503
200	0x3acbd592	0.001555132
201	0xbd9bed8e	-0.07613669
202	0xbd7cf067	-0.061752703
203	0x3dc2997c	0.09501931
204	0xbd87fd2a	-0.06640084
205	0x3dd83d59	0.10558576
206	0x3df35f5f	0.11883425
207	0x3d35ce6a	0.044386305
208	0x3db74b34	0.08949891
209	0xbe070a6d	-0.13187571
210	0x3c03e6f6	0.008050671
211	0x3e758f16	0.23980364
212	0xbd949ac4	-0.07256082
213	0x3d623eea	0.05523578
214	0x3da2ef4b	0.07955798
215	0xbd8f9c40	-0.07012224
216	0xbd86c873	-0.065812014
217	0xbe37e109	-0.17956938
218	0xbbb02db9	-0.0053765443
219	0x3e044c3f	0.1291971
220	0xbc8baa06	-0.017048847
221	0xbd7d631a	-0.06186209
222	0x3df2d631	0.1185726
223	0x3e23e5e2	0.16005662
224	0xbd94badd	-0.07262204
225	0x3e8ef93b	0.27924523
226	0xbc0e76ef	-0.008695348
227	0x3c6bac7a	0.014384383
228	0xbdc0f68b	-0.09422024
229	0xbd7ac459	-0.061222408
230	0x3d60fd78	0.054929227
231	0x3de73c8c	0.11290845
232	0x3d3f4074	0.046692327
233	0x3d8cebe3	0.06880929
234	0xbbdd0077	-0.00674444
235	0x3d17313e	0.036912195
236	0xbd4ea769	-0.050452624
237	0xbe15e842	-0.1463938
238	0x3de14da7	0.11001139
239	0x3d257326	0.040393017
240	0x3d138928	0.036019474
241	0xbd6cac4c	-0.057781503
242	0x3d36a201	0.044588093
243	0x3dae693f	0.08516168
244	0xbe465d6a	-0.19371572
245	0x3d9b0d1b	0.07570859
246	0x3ddae48b	0.10688122
247	0x3d00ba99	0.031427953
248	0x3d423e57	0.047422733
249	0xbd7a639f	-0.061130162
250	0x3da90828	0.08253509
251	0x3dea39f6	0.114368364
252	0xbd524d64	-0.051343337
253	0x3de823eb	0.11334976
254	0xbcee3446	-0.02907766
255	0x3ccc2f49	0.024924891

fc2.bias f4 [64]
0	0xbd9d2ae9	-0.076742
1	0x3d4a2980	0.049355984
2	0x3e4edfd9	0.20202579
3	0xbd90dafe	-0.070730194
4	0x3d990019	0.07470722
5	0xbb4a71b8	-0.0030890536
6	0x3d63d75f	0.055625316
7	0xbdea8bb7	-0.1145243
8	0xbe2294c2	-0.15877059
9	0x3da18923	0.07887485
10	0xbd937e6b	-0.07201847
11	0xbd895ff7	-0.06707757
12	0x3d38bb14	0.045100287
13	0x3cb4cfff	0.022071837
14	0xbb0fc7e9	-0.0021939224
15	0xbdc661da	-0.096866325
16	0xbd38e9b5	-0.045144755
17	0xbc1251ef	-0.008930667
18	0xbdeeaf79	-0.116545625
19	0x3c8db86c	0.017299853
20	0xbcfdd4fc	-0.030985348
21	0x3d80fcfa	0.062982515
22	0xbdde28b9	-0.10847611
23	0xbde030a6	-0.10946779
24	0x3da21a2c	0.07915148
25	0xbe0030a8	-0.12518561
26	0xbdb86a5d	-0.09004662
27	0x3bf0904e	0.007341421
28	0x3ddf06bf	0.108899586
29	0xbe064bc0	-0.13114834
30	0x3d3a7b6b	0.045527857
31	0x3d531242	0.051531084
32	0x3e07fa8d	0.13279171
33	0xbb79dcbf	-0.003812596
34	0xbc863128	-0.016380861
35	0x3e1df704	0.1542626
36	0xbdcd3e67	-0.10021668
37	0x3d5d8419	0.054081056
38	0x3d4525b7	0.04813167
39	0xbd82f1b3	-0.06393757
40	0xbd5543b7	-0.05206653
41	0x3d267556	0.040639244
42	0x3ce59450	0.028024822
43	0xbdcd682f	-0.10029637
44	0x3e3c6d0e	0.18400976
45	0x3daa9d14	0.083307415
46	0xbdde5786	-0.108565375
47	0x3d8c0a02	0.06837846
48	0x3ca9e151	0.020737322
49	0x3d1577b5	0.036491115
50	0x3e1010ce	0.1406891
51	0xbdc8467a	-0.09779067
52	0xbd86676e	-0.065626964
53	0x3ce4716e	0.027886119
54	0x3d93e8be	0.072221264
55	0x3cd032fd	0.025414938
56	0x3c554323	0.013016495
57	0x3cc3c383	0.023896938
58	0x3bdc450f	0.0067220996
59	0x3df13b39	0.11778874
60	0xbdc1bfd6	-0.09460418
61	0xbd10534d	-0.03523569
62	0xbdf923aa	-0.121650055
63	0x3a7be29f	0.00096086593

fc3.weight f4 [13, 64]
0	0xbe7c9b02	-0.24668506
1	0xbb4d1cd4	-0.00312977
2	0x3e1051d0	0.14093709
3	0xbe507f05	-0.20360954
4	0xbbcdcc60	-0.006280467
5	0xba4994f2	-0.0007689736
6	0x3ab2e3a0	0.001364816
7	0x3a839daa	0.0010041494
8	0xbb1e66f6	-0.0024170256
9	0x3db1aafb	0.0867519
10	0xbcfe2a3f	-0.031026004
11	0xbe1ef78e	-0.15524122
12	0xb9b27030	-0.00034034392
13	0xbdb05d60	-0.0861156
14	0x3aaea15e	0.0013323238
15	0xbce8e7b4	-0.028430797
16	0xbd870058	-0.065918624
17	0x3a6a8806	0.00089466607
18	0xbc99d502	-0.018778328
19	0x395abedb	0.000208612
20	0xbd5b34cd	-0.05351715
21	0x3c922aba	0.01784264
22	0xbc2d8558	-0.010590874
23	0xbc37f0a3	-0.011226806
24	0x3c7ee50c	0.015557539
25	0xbe06527a	-0.131174
26	0xbacc92d1	-0.001560772
27	0x3ae6ac27	0.0017598913
28	0xba981be1	-0.0011604988
29	0xbe8648fb	-0.26227555
30	0xbe16443b	-0.14674465
31	0x3b9d713a	0.0048047574
32	0xbbc5e6f6	-0.0060394956
33	0x3e50acf3	0.20378475
34	0xbe327a06	-0.17429361
35	0xbaab0f95	-0.0013050908
36	0x3bda6b42	0.006665618
37	0x3a508387	0.00079541694
38	0xbcccfe9b	-0.02502375
39	0xbdba2081	-0.09088231
40	0x3a893af0	0.0010469835
41	0xbb5d6797	-0.0033783668
42	0xba81c927	-0.0009901867
43	0xbe084d39	-0.13310708
44	0x3ad68d27	0.0016368971
45	0x3e5063bb	0.20350544
46	0xbaee2c8f	-0.0018171238
47	0x3e25f6ac	0.16207379
48	0x3e2016c7	0.15633689
49	0xbdb61f83	-0.08892729
50	0xba83aafa	-0.0010045462
51	0x3b7f7a02	0.0038982634
52	0xbb10d33a	-0.0022098557
53	0xb9c892fe	-0.0003825649
54	0x3e4f56a2	0.20247892
55	0xbb615d56	-0.0034387908
56	0x3e00ba1f	0.12571
57	0xba6b9773	-0.0008987106
58	0x3e01f7fc	0.12692255
59	0x3c1d9744	0.009618584
60	0xba81344d	-0.0009857506
61	0x3e2ab1f0	0.1666944
62	0xbad5e0f5	-0.0016317653
63	0xbd00e5bb	-0.031469088
64	0x3e433116	0.19061694
65	0xbc5d5a3d	-0.013510284
66	0x3cf3a64d	0.029742384
67	0x3e269b85	0.16270263
68	0xbd3ec93b	-0.046578627
69	0xbb25bc1c	-0.0025289124
70	0xbac16f35	-0.0014757874
71	0x3b908c8f	0.004411287
72	0x3af22b1c	0.0018475982
73	0xbe108f81	-0.14117242
74	0xbd08c5ef	-0.03339189
75	0xbd1a74cb	-0.03770904
76	0xbb5ab07c	-0.0033369353
77	0x3e27c267	0.16382752
78	0x3b543b94	0.0032384144
79	0x3c0a4cd1	0.008441166
80	0x3e42f2f4	0.19037992
81	0xbad6a41f	-0.0016375816
82	0xb9506b9e	-0.00019876516
83	0x3c0222ec	0.007942896
84	0xbc3b18be	-0.011419473
85	0x3d12ca31	0.035837356
86	0xbc2ae7fc	-0.010431286
87	0xbaa643f6	-0.0012685049
88	0x3d9c6f59	0.076384254
89	0x3dd5073f	0.10401773
90	0x3a6d15d3	0.00090440846
91	0x3a670830	0.0008813171
92	0x39aa685e	0.00032502686
93	0xbde0b2e9	-0.109716244
94	0xbe7463c3	-0.23866181
95	0xbb8c84aa	-0.0042882757
96	0x39576d93	0.00020544817
97	0xbe42128d	-0.18952389
98	0xbc749598	-0.014928244
99	0xbbe6cd55	-0.0070435205
100	0x3bf84de7	0.007577646
101	0xbb0c68a1	-0.0021424668
102	0xbceabfad	-0.028655851
103	0xbe51cff6	-0.20489487
104	0xb99f56d0	-0.00030391524
105	0x3bccfcde	0.00625573
106	0x3aa34ee0	0.001245942
107	0xbe56a408	-0.2096101
108	0x3ae40e38	0.0017399257
109	0xbe25bba6	-0.16184863
110	0x382dfe44	4.1483218e-05
111	0x3e49ac94	0.1969474
112	0x3e0e8fd1	0.13922049
113	0xbd8202a3	-0.06348159
114	0xbb01dc14	-0.0019815015
115	0xbba34f28	-0.0049838014
116	0xbacb5f92	-0.0015516153
117	0xbab4294d	-0.0013745219
118	0x3c0e1f79	0.008674496
119	0x3d08ff0b	0.033446353
120	0xbdd913b4	-0.10599461
121	0xbacebf9a	-0.0015773654
122	0x3e1d627e	0.15369603
123	0xbc8ff30e	-0.017571952
124	0x3a6ef2d4	0.00091151637
125	0x3d8083c5	0.06275133
126	0xbc1c3e83	-0.009536388
127	0x3dec2e5a	0.11532278
128	0x3c302922	0.010751994
129	0xbd0af4ca	-0.033924855
130	0xbd55c488	-0.05218938
131	0xbdaa4f44	-0.083159
132	0x3d6182b3	0.055056285
133	0xbb395e48	-0.0028284956
134	0xb8b1d950	-8.480495e-05
135	0x38f3b946	0.00011621653
136	0x3c623bba	0.013808185
137	0x3c9ddb0a	0.019269485
138	0x3c7d01f5	0.015442361
139	0xbce74877	-0.028232796
140	0x3b8e5d85	0.0043446445
141	0xbd1bf62a	-0.038076557
142	0xbb062dba	-0.0020474032
143	0xbd82629c	-0.063664645
144	0x3de669ec	0.11250672
145	0xbad4f362	-0.001624685
146	0xbc8e02f0	-0.017335385
147	0xbcd5246f	-0.02601835
148	0x3e239cdd	0.15977807
149	0x3ddb0c18	0.10695666
150	0xbcf439db	-0.029812744
151	0xbc7f5942	-0.015585246
152	0x3d480ed3	0.048842262
153	0x3dca2669	0.098706074
154	0x3b39def7	0.0028361657
155	0xbbbc6701	-0.0057495837
156	0xbb663bc1	-0.003513083
157	0x3de94ab0	0.11391199
158	0x3df42bca	0.119224146
159	0x3cce3910	0.025173694
160	0x3cbdac38	0.02315341
161	0x3cefd730	0.029277414
162	0xbd027955	-0.031853992
163	0xba4571d8	-0.00075319177
164	0x3b4191fb	0.0029536474
165	0x3b2e9078	0.0026636403
166	0xbd7ccaf4	-0.06171699
167	0xbe01fb43	-0.12693505
168	0xbb547ab8	-0.003242178
169	0xbe342653	-0.17592745
170	0x3ac36953	0.0014908708
171	0xbe898870	-0.26861906
172	0x3d48969e	0.048971765
173	0x3cfda14e	0.030960705
174	0xba743320	-0.00093154795
175	0x3caa77d7	0.020809097
176	0xbdae379a	-0.08506699
177	0xbc5fd152	-0.013660746
178	0x39a8bcbc	0.00032184075
179	0x3b2f7208	0.0026770849
180	0xbad8109a	-0.001648444
181	0x3af9dc3e	0.001906283
182	0x3d2fb427	0.042896416
183	0x3dfa1e2b	0.12212785
184	0x3dd6e486	0.10492806
185	0xbaa39b94	-0.0012482279
186	0xbe3f5a03	-0.1868668
187	0x3e0c4624	0.13698632
188	0x398c320d	0.00026740172
189	0xbe6ebb44	-0.23313624
190	0xbc06f50e	-0.0082371365
191	0x3ddd69be	0.10811184
192	0x3d9b1eb2	0.07574214
193	0x3c646ce0	0.013941973
194	0xbd232f7d	-0.03984021
195	0xbd296152	-0.041352578
196	0x3e163dc7	0.14672004
197	0xbc04c70b	-0.008104096
198	0xba9a1030	-0.0011754092
199	0x3b92573d	0.004465966
200	0x3d9b3a21	0.075794466
201	0xbe02215d	-0.1270804
202	0x3e07782f	0.1322944
203	0x3db07851	0.086166985
204	0xbbbd89f4	-0.0057842676
205	0x3d74baa3	0.059748303
206	0x3b869354	0.0041069183
207	0xbd98111c	-0.07425138
208	0xbc9bb46b	-0.019006928
209	0x3b2eb0f9	0.0026655777
210	0xbdad891d	-0.08473418
211	0xbc191597	-0.009343526
212	0x3d8bb7a7	0.06822138
213	0xbcff0999	-0.031132506
214	0x3da7724a	0.08176096
215	0x3cacfa69	0.021115499
216	0xbd90de6f	-0.07073676
217	0xbc342e44	-0.010997359
218	0x3b25206d	0.002519633
219	0xbbaeee0d	-0.0053384365
220	0x3baf9d39	0.0053593186
221	0x3de3b780	0.11118984
222	0xbd2df9d1	-0.04247457
223	0x3cb28bb4	0.021795131
224	0xbd259e66	-0.040434264
225	0xbd0a1db5	-0.033719737
226	0xbe3233ff	-0.17402647
227	0x3af139f7	0.0018404116
228	0x3b00aed7	0.0019635463
229	0x3b807ffb	0.0039215065
230	0x3d051549	0.032491002
231	0x3e3b5281	0.18293191
232	0x39bec63e	0.00036387326
233	0xbcf794e8	-0.030222371
234	0xbba7ac3e	-0.0051169684
235	0xbdc5cc43	-0.096581005
236	0x3b622efd	0.003451287
237	0x3caf9e3e	0.02143776
238	0xbbb43bdc	-0.0055003
239	0x3d99da61	0.075123556
240	0x3e67691d	0.22598691
241	0xbd299be3	-0.04140843
242	0x3b25c7bd	0.0025296055
243	0x3cd8a4de	0.026445802
244	0x3b5264fa	0.0032103644
245	0x3b3bff6c	0.002868618
246	0xbdb23e85	-0.08703331
247	0x3cc89e6d	0.024489606
248	0xbd416f6a	-0.047225393
249	0xbb805c43	-0.0039172485
250	0xbd5bbf02	-0.053648956
251	0x3ddccbdd	0.10781071
252	0x3bbcfa00	0.005767107
253	0x3e488c3a	0.19584742
254	0x3d0fe15c	0.03512703
255	0xbd6e7177	-0.058213677

fc3.bias f4 [13]
0	0x3d9733ac	0.073829025
1	0x3cb0f63d	0.02160179
2	0x3d72d039	0.059280608
3	0x3d2e4aff	0.04255199
4	0x3d044391	0.032291
5	0x3d679935	0.056542594
6	0xbd5fc397	-0.05462989
7	0x3cbc0946	0.02295364
8	0xbaabc8ce	-0.0013106109
9	0xbda8adbd	-0.08236263
10	0x3de2b406	0.11069493
11	0xbd44e3b2	-0.04806871
12	0x3c169537	0.009190849
